…
          "base_uri": "https://localhost:8080/"
        },
        "outputId": "d3f4bfd0-2d10-484a-c1b6-3ba2c0a7af8c",
        "id": "by_0kRKkEauU"
      },
      "execution_count": null,
      "outputs": [
        {
          "output_type": "stream",
          "name": "stdout",
          "text": [
            "Model: \"sequential\"\n",
            "_________________________________________________________________\n",
            " Layer (type)                Output Shape              Param #   \n",
            "=================================================================\n",
            " rescaling (Rescaling)       (None, 224, 224, 3)       0         \n",
            "                                                                 \n",
            " conv2d (Conv2D)             (None, 222, 222, 32)      896       \n",
            "                                                                 \n",
            " max_pooling2d (MaxPooling2  (None, 111, 111, 32)      0         \n",
            " D)                                                              \n",
            "                                                                 \n",
            " conv2d_1 (Conv2D)           (None, 109, 109, 64)      18496     \n",
            "                                                                 \n",
            " max_pooling2d_1 (MaxPoolin  (None, 54, 54, 64)        0         \n",
            " g2D)                                                            \n",
            "                                                                 \n",
            " conv2d_2 (Conv2D)           (None, 52, 52, 128)       73856     \n",
            "                                                                 \n",
            " max_pooling2d_2 (MaxPoolin  (None, 26, 26, 128)       0         \n",
            " g2D)                                                            \n",
            "                                                                 \n",
            " conv2d_3 (Conv2D)           (None, 24, 24, 128)       147584    \n",
            "                                                                 \n",
            " max_pooling2d_3 (MaxPoolin  (None, 12, 12, 128)       0         \n",
            " g2D)                                                            \n",
            "                                                                 \n",
            " conv2d_4 (Conv2D)           (None, 10, 10, 256)       295168    \n",
            "                                                                 \n",
            " max_pooling2d_4 (MaxPoolin  (None, 5, 5, 256)         0         \n",
            " g2D)                                                            \n",
            "                                                                 \n",
            " conv2d_5 (Conv2D)           (None, 3, 3, 256)         590080    \n",
            "                                                                 \n",
            " flatten (Flatten)           (None, 2304)              0         \n",
            "                                                                 \n",
            " dense (Dense)               (None, 53)                122165    \n",
            "                                                                 \n",
            "=================================================================\n",
            "Total params: 1248245 (4.76 MB)\n",
            "Trainable params: 1248245 (4.76 MB)\n",
            "Non-trainable params: 0 (0.00 Byte)\n",
            "_________________________________________________________________\n"
…
          "base_uri": "https://localhost:8080/"
        },
        "outputId": "ffc9f8a3-e579-4f5c-b731-08df0124a22b",
        "id": "bilcqdf0EauV"
      },
      "execution_count": null,
      "outputs": [
        {
          "output_type": "stream",
          "name": "stdout",
          "text": [
            "Model: \"sequential\"\n",
            "_________________________________________________________________\n",
            " Layer (type)                Output Shape              Param #   \n",
            "=================================================================\n",
            " data_augmentation (Sequent  (None, 224, 224, 3)       0         \n",
            " ial)                                                            \n",
            "                                                                 \n",
            " rescaling (Rescaling)       (None, 224, 224, 3)       0         \n",
            "                                                                 \n",
            " conv2d (Conv2D)             (None, 222, 222, 64)      1792      \n",
            "                                                                 \n",
            " batch_normalization (Batch  (None, 222, 222, 64)      256       \n",
            " Normalization)                                                  \n",
            "                                                                 \n",
            " max_pooling2d (MaxPooling2  (None, 111, 111, 64)      0         \n",
            " D)                                                              \n",
            "                                                                 \n",
            " conv2d_1 (Conv2D)           (None, 109, 109, 128)     73856     \n",
            "                                                                 \n",
            " batch_normalization_1 (Bat  (None, 109, 109, 128)     512       \n",
            " chNormalization)                                                \n",
            "                                                                 \n",
            " max_pooling2d_1 (MaxPoolin  (None, 54, 54, 128)       0         \n",
            " g2D)                                                            \n",
            "                                                                 \n",
            " conv2d_2 (Conv2D)           (None, 52, 52, 128)       147584    \n",
            "                                                                 \n",
            " batch_normalization_2 (Bat  (None, 52, 52, 128)       512       \n",
            " chNormalization)                                                \n",
            "                                                                 \n",
            " max_pooling2d_2 (MaxPoolin  (None, 26, 26, 128)       0         \n",
            " g2D)                                                            \n",
            "                                                                 \n",
            " conv2d_3 (Conv2D)           (None, 24, 24, 128)       147584    \n",
            "                                                                 \n",
            " batch_normalization_3 (Bat  (None, 24, 24, 128)       512       \n",
            " chNormalization)                                                \n",
            "                                                                 \n",
            " max_pooling2d_3 (MaxPoolin  (None, 12, 12, 128)       0         \n",
            " g2D)                                                            \n",
            "                                                                 \n",
            " conv2d_4 (Conv2D)           (None, 10, 10, 256)       295168    \n",
            "                                                                 \n",
            " batch_normalization_4 (Bat  (None, 10, 10, 256)       1024      \n",
            " chNormalization)                                                \n",
            "                                                                 \n",
            " max_pooling2d_4 (MaxPoolin  (None, 5, 5, 256)         0         \n",
            " g2D)                                                            \n",
            "                                                                 \n",
            " conv2d_5 (Conv2D)           (None, 3, 3, 256)         590080    \n",
            "                                                                 \n",
            " dropout (Dropout)           (None, 3, 3, 256)         0         \n",
            "                                                                 \n",
            " flatten (Flatten)           (None, 2304)              0         \n",
            "                                                                 \n",
            " dense (Dense)               (None, 53)                122165    \n",
            "                                                                 \n",
            "=================================================================\n",
            "Total params: 1381045 (5.27 MB)\n",
            "Trainable params: 1379637 (5.26 MB)\n",
            "Non-trainable params: 1408 (5.50 KB)\n",
            "_________________________________________________________________\n"
…
          "base_uri": "https://localhost:8080/"
        },
        "id": "Na8Ph_rY_TrR",
        "outputId": "50fe5b34-a8de-4968-cfe7-3239ffcd0e2e"
      },
      "execution_count": null,
      "outputs": [
        {
          "output_type": "stream",
          "name": "stdout",
          "text": [
            "Model: \"sequential\"\n",
            "_________________________________________________________________\n",
            " Layer (type)                Output Shape              Param #   \n",
            "=================================================================\n",
            " rescaling_3 (Rescaling)     (None, 224, 224, 3)       0         \n",
            "                                                                 \n",
            " conv2d_13 (Conv2D)          (None, 222, 222, 32)      896       \n",
            "                                                                 \n",
            " max_pooling2d_11 (MaxPooli  (None, 111, 111, 32)      0         \n",
            " ng2D)                                                           \n",
            "                                                                 \n",
            " conv2d_14 (Conv2D)          (None, 109, 109, 64)      18496     \n",
            "                                                                 \n",
            " max_pooling2d_12 (MaxPooli  (None, 54, 54, 64)        0         \n",
            " ng2D)                                                           \n",
            "                                                                 \n",
            " conv2d_15 (Conv2D)          (None, 52, 52, 128)       73856     \n",
            "                                                                 \n",
            " max_pooling2d_13 (MaxPooli  (None, 26, 26, 128)       0         \n",
            " ng2D)                                                           \n",
            "                                                                 \n",
            " conv2d_16 (Conv2D)          (None, 24, 24, 128)       147584    \n",
            "                                                                 \n",
            " max_pooling2d_14 (MaxPooli  (None, 12, 12, 128)       0         \n",
            " ng2D)                                                           \n",
            "                                                                 \n",
            " conv2d_17 (Conv2D)          (None, 10, 10, 256)       295168    \n",
            "                                                                 \n",
            " max_pooling2d_15 (MaxPooli  (None, 5, 5, 256)         0         \n",
            " ng2D)                                                           \n",
            "                                                                 \n",
            " conv2d_18 (Conv2D)          (None, 3, 3, 256)         590080    \n",
            "                                                                 \n",
            " flatten_2 (Flatten)         (None, 2304)              0         \n",
            "                                                                 \n",
            " dense_4 (Dense)             (None, 5)                 11525     \n",
            "                                                                 \n",
            "=================================================================\n",
            "Total params: 1137605 (4.34 MB)\n",
            "Trainable params: 1137605 (4.34 MB)\n",
            "Non-trainable params: 0 (0.00 Byte)\n",
            "_________________________________________________________________\n"
…
          "base_uri": "https://localhost:8080/"
        },
        "id": "W2zjmoXQ2oy5",
        "outputId": "ac419453-8340-48c8-897a-7fef6dc8f3e7"
      },
      "execution_count": null,
      "outputs": [
        {
          "output_type": "stream",
          "name": "stdout",
          "text": [
            "Model: \"sequential_3\"\n",
            "_________________________________________________________________\n",
            " Layer (type)                Output Shape              Param #   \n",
            "=================================================================\n",
            " data_augmentation (Sequent  (None, 224, 224, 3)       0         \n",
            " ial)                                                            \n",
            "                                                                 \n",
            " rescaling_6 (Rescaling)     (None, 224, 224, 3)       0         \n",
            "                                                                 \n",
            " conv2d_31 (Conv2D)          (None, 222, 222, 32)      896       \n",
            "                                                                 \n",
            " batch_normalization_10 (Ba  (None, 222, 222, 32)      128       \n",
            " tchNormalization)                                               \n",
            "                                                                 \n",
            " max_pooling2d_26 (MaxPooli  (None, 111, 111, 32)      0         \n",
            " ng2D)                                                           \n",
            "                                                                 \n",
            " conv2d_32 (Conv2D)          (None, 109, 109, 64)      18496     \n",
            "                                                                 \n",
            " batch_normalization_11 (Ba  (None, 109, 109, 64)      256       \n",
            " tchNormalization)                                               \n",
            "                                                                 \n",
            " max_pooling2d_27 (MaxPooli  (None, 54, 54, 64)        0         \n",
            " ng2D)                                                           \n",
            "                                                                 \n",
            " conv2d_33 (Conv2D)          (None, 52, 52, 128)       73856     \n",
            "                                                                 \n",
            " batch_normalization_12 (Ba  (None, 52, 52, 128)       512       \n",
            " tchNormalization)                                               \n",
            "                                                                 \n",
            " max_pooling2d_28 (MaxPooli  (None, 26, 26, 128)       0         \n",
            " ng2D)                                                           \n",
            "                                                                 \n",
            " conv2d_34 (Conv2D)          (None, 24, 24, 128)       147584    \n",
            "                                                                 \n",
            " batch_normalization_13 (Ba  (None, 24, 24, 128)       512       \n",
            " tchNormalization)                                               \n",
            "                                                                 \n",
            " max_pooling2d_29 (MaxPooli  (None, 12, 12, 128)       0         \n",
            " ng2D)                                                           \n",
            "                                                                 \n",
            " conv2d_35 (Conv2D)          (None, 10, 10, 256)       295168    \n",
            "                                                                 \n",
            " batch_normalization_14 (Ba  (None, 10, 10, 256)       1024      \n",
            " tchNormalization)                                               \n",
            "                                                                 \n",
            " max_pooling2d_30 (MaxPooli  (None, 5, 5, 256)         0         \n",
            " ng2D)                                                           \n",
            "                                                                 \n",
            " conv2d_36 (Conv2D)          (None, 3, 3, 256)         590080    \n",
            "                                                                 \n",
            " dropout_2 (Dropout)         (None, 3, 3, 256)         0         \n",
            "                                                                 \n",
            " flatten_5 (Flatten)         (None, 2304)              0         \n",
            "                                                                 \n",
            " dense_7 (Dense)             (None, 5)                 11525     \n",
            "                                                                 \n",
            "=================================================================\n",
            "Total params: 1140037 (4.35 MB)\n",
            "Trainable params: 1138821 (4.34 MB)\n",
            "Non-trainable params: 1216 (4.75 KB)\n",
            "_________________________________________________________________\n"
…
          "base_uri": "https://localhost:8080/"
        },
        "outputId": "400091fb-d3d4-4fe9-92a8-1c80104bbb79",
        "id": "LBxL5mZpYpZi"
      },
      "execution_count": null,
      "outputs": [
        {
          "output_type": "stream",
          "name": "stdout",
          "text": [
            "Model: \"sequential_1\"\n",
            "_________________________________________________________________\n",
            " Layer (type)                Output Shape              Param #   \n",
            "=================================================================\n",
            " rescaling_1 (Rescaling)     (None, 224, 224, 3)       0         \n",
            "                                                                 \n",
            " conv2d_6 (Conv2D)           (None, 222, 222, 32)      896       \n",
            "                                                                 \n",
            " max_pooling2d_5 (MaxPoolin  (None, 111, 111, 32)      0         \n",
            " g2D)                                                            \n",
            "                                                                 \n",
            " conv2d_7 (Conv2D)           (None, 109, 109, 64)      18496     \n",
            "                                                                 \n",
            " max_pooling2d_6 (MaxPoolin  (None, 54, 54, 64)        0         \n",
            " g2D)                                                            \n",
            "                                                                 \n",
            " conv2d_8 (Conv2D)           (None, 52, 52, 128)       73856     \n",
            "                                                                 \n",
            " max_pooling2d_7 (MaxPoolin  (None, 26, 26, 128)       0         \n",
            " g2D)                                                            \n",
            "                                                                 \n",
            " conv2d_9 (Conv2D)           (None, 24, 24, 128)       147584    \n",
            "                                                                 \n",
            " max_pooling2d_8 (MaxPoolin  (None, 12, 12, 128)       0         \n",
            " g2D)                                                            \n",
            "                                                                 \n",
            " conv2d_10 (Conv2D)          (None, 10, 10, 256)       295168    \n",
            "                                                                 \n",
            " max_pooling2d_9 (MaxPoolin  (None, 5, 5, 256)         0         \n",
            " g2D)                                                            \n",
            "                                                                 \n",
            " conv2d_11 (Conv2D)          (None, 3, 3, 256)         590080    \n",
            "                                                                 \n",
            " flatten_1 (Flatten)         (None, 2304)              0         \n",
            "                                                                 \n",
            " dense_1 (Dense)             (None, 14)                32270     \n",
            "                                                                 \n",
            "=================================================================\n",
            "Total params: 1158350 (4.42 MB)\n",
            "Trainable params: 1158350 (4.42 MB)\n",
            "Non-trainable params: 0 (0.00 Byte)\n",
            "_________________________________________________________________\n"
…
          "base_uri": "https://localhost:8080/"
        },
        "outputId": "23124af3-0610-45a2-c561-9e30f2aa0abf",
        "id": "sgKBWZuaYpZk"
      },
      "execution_count": null,
      "outputs": [
        {
          "output_type": "stream",
          "name": "stdout",
          "text": [
            "Model: \"sequential_2\"\n",
            "_________________________________________________________________\n",
            " Layer (type)                Output Shape              Param #   \n",
            "=================================================================\n",
            " data_augmentation (Sequent  (None, 224, 224, 3)       0         \n",
            " ial)                                                            \n",
            "                                                                 \n",
            " rescaling_2 (Rescaling)     (None, 224, 224, 3)       0         \n",
            "                                                                 \n",
            " conv2d_12 (Conv2D)          (None, 222, 222, 32)      896       \n",
            "                                                                 \n",
            " batch_normalization_5 (Bat  (None, 222, 222, 32)      128       \n",
            " chNormalization)                                                \n",
            "                                                                 \n",
            " max_pooling2d_10 (MaxPooli  (None, 111, 111, 32)      0         \n",
            " ng2D)                                                           \n",
            "                                                                 \n",
            " conv2d_13 (Conv2D)          (None, 109, 109, 32)      9248      \n",
            "                                                                 \n",
            " batch_normalization_6 (Bat  (None, 109, 109, 32)      128       \n",
            " chNormalization)                                                \n",
            "                                                                 \n",
            " max_pooling2d_11 (MaxPooli  (None, 54, 54, 32)        0         \n",
            " ng2D)                                                           \n",
            "                                                                 \n",
            " conv2d_14 (Conv2D)          (None, 52, 52, 64)        18496     \n",
            "                                                                 \n",
            " batch_normalization_7 (Bat  (None, 52, 52, 64)        256       \n",
            " chNormalization)                                                \n",
            "                                                                 \n",
            " max_pooling2d_12 (MaxPooli  (None, 26, 26, 64)        0         \n",
            " ng2D)                                                           \n",
            "                                                                 \n",
            " conv2d_15 (Conv2D)          (None, 24, 24, 64)        36928     \n",
            "                                                                 \n",
            " batch_normalization_8 (Bat  (None, 24, 24, 64)        256       \n",
            " chNormalization)                                                \n",
            "                                                                 \n",
            " max_pooling2d_13 (MaxPooli  (None, 12, 12, 64)        0         \n",
            " ng2D)                                                           \n",
            "                                                                 \n",
            " conv2d_16 (Conv2D)          (None, 10, 10, 128)       73856     \n",
            "                                                                 \n",
            " dropout_1 (Dropout)         (None, 10, 10, 128)       0         \n",
            "                                                                 \n",
            " flatten_2 (Flatten)         (None, 12800)             0         \n",
            "                                                                 \n",
            " dense_2 (Dense)             (None, 14)                179214    \n",
            "                                                                 \n",
            "=================================================================\n",
            "Total params: 319406 (1.22 MB)\n",
            "Trainable params: 319022 (1.22 MB)\n",
            "Non-trainable params: 384 (1.50 KB)\n",
            "_________________________________________________________________\n"
…
